Model: "sequential"
_________________________________________________________________
Layer (type)                 Output Shape              Param #   
=================================================================
dense (Dense)                (None, 200)               157000    
_________________________________________________________________
dense_1 (Dense)              (None, 200)               40200     
_________________________________________________________________
dense_2 (Dense)              (None, 3)                 603       
_________________________________________________________________
dense_3 (Dense)              (None, 200)               800       
_________________________________________________________________
dense_4 (Dense)              (None, 200)               40200     
_________________________________________________________________
dense_5 (Dense)              (None, 784)               157584    
=================================================================
Total params: 396,387
Trainable params: 396,387
Non-trainable params: 0
_________________________________________________________________
Epoch 1/20
 1/48 [..............................] - ETA: 25s - loss: 0.1147 5/48 [==>...........................] - ETA: 0s -
…
