Model: "sequential"
_________________________________________________________________
Layer (type)                 Output Shape              Param #   
=================================================================
conv2d (Conv2D)              (None, 28, 28, 16)        160       
_________________________________________________________________
conv2d_1 (Conv2D)            (None, 14, 14, 32)        4640      
_________________________________________________________________
conv2d_2 (Conv2D)            (None, 7, 7, 32)          9248      
_________________________________________________________________
flatten (Flatten)            (None, 1568)              0         
_________________________________________________________________
dense (Dense)                (None, 3)                 4707      
_________________________________________________________________
dense_1 (Dense)              (None, 1568)              6272      
_________________________________________________________________
reshape (Reshape)            (None, 7, 7, 32)          0         
_________________________________________________________________
conv2d_transpose (Conv2DTran (None, 14, 14, 32)        9248      
_________________________________________________________________
conv2d_transpose_1 (Conv2DTr (None, 28, 28, 16)        4624      
_________________________________________________________________
conv2d_3 (Conv2D)            (None, 28, 28, 1)         145       
=================================================================
Total params: 39,044
Trainable params: 39,044
Non-trainable params: 0
_________________________________________________________________
Epoch 1/20

 1/48 [..............................] - ETA: 45s - loss: 0.2311
 2/48 [>.............................] - ETA: 12s - loss: 0.2299
…
