Model: "sequential"
_________________________________________________________________
Layer (type)                 Output Shape              Param #   
=================================================================
conv2d (Conv2D)              (None, 32, 32, 32)        896       
_________________________________________________________________
max_pooling2d (MaxPooling2D) (None, 16, 16, 32)        0         
_________________________________________________________________
conv2d_1 (Conv2D)            (None, 16, 16, 16)        4624      
_________________________________________________________________
max_pooling2d_1 (MaxPooling2 (None, 8, 8, 16)          0         
_________________________________________________________________
conv2d_2 (Conv2D)            (None, 8, 8, 16)          2320      
_________________________________________________________________
up_sampling2d (UpSampling2D) (None, 16, 16, 16)        0         
_________________________________________________________________
conv2d_3 (Conv2D)            (None, 16, 16, 32)        4640      
_________________________________________________________________
up_sampling2d_1 (UpSampling2 (None, 32, 32, 32)        0         
_________________________________________________________________
conv2d_4 (Conv2D)            (None, 32, 32, 3)         867       
=================================================================
Total params: 13,347
Trainable params: 13,347
Non-trainable params: 0
_________________________________________________________________
Epoch 1/20
 1/40 [..............................] - ETA: 49s - loss: 0.0836 2/40 [>.............................] - ETA: 26s
…
